import normalize ... ...
(3067, 7, 7, 200, 1)
(3067, 16)
(7182, 7, 7, 200, 1)
(7182, 16)
__________________________________________________________________________________________________
Layer (type)                    Output Shape         Param #     Connected to                     
==================================================================================================
input_1 (InputLayer)            (None, 7, 7, 200, 1) 0                                            
__________________________________________________________________________________________________
g0_conv (Conv3D)                (None, 7, 7, 190, 12 144         input_1[0][0]                    
__________________________________________________________________________________________________
g0_bn (BatchNormalization)      (None, 7, 7, 190, 12 48          g0_conv[0][0]                    
__________________________________________________________________________________________________
g0_relu (Activation)            (None, 7, 7, 190, 12 0           g0_bn[0][0]                      
__________________________________________________________________________________________________
max_pooling3d_1 (MaxPooling3D)  (None, 7, 7, 95, 12) 0           g0_relu[0][0]                    
__________________________________________________________________________________________________
dropout_1 (Dropout)             (None, 7, 7, 95, 12) 0           max_pooling3d_1[0][0]            
__________________________________________________________________________________________________
g1_b1_L1 (Lambda)               (None, 7, 7, 95, 2)  0           dropout_1[0][0]                  
__________________________________________________________________________________________________
g1_b1_L2 (Lambda)               (None, 7, 7, 95, 2)  0           dropout_1[0][0]                  
__________________________________________________________________________________________________
g1_b1_L3 (Lambda)               (None, 7, 7, 95, 2)  0           dropout_1[0][0]                  
__________________________________________________________________________________________________
g1_b1_L4 (Lambda)               (None, 7, 7, 95, 2)  0           dropout_1[0][0]                  
__________________________________________________________________________________________________
g1_b1_L5 (Lambda)               (None, 7, 7, 95, 2)  0           dropout_1[0][0]                  
__________________________________________________________________________________________________
g1_b1_L6 (Lambda)               (None, 7, 7, 95, 2)  0           dropout_1[0][0]                  
__________________________________________________________________________________________________
g1_b1_L1conv (Conv3D)           (None, 5, 5, 89, 4)  508         g1_b1_L1[0][0]                   
__________________________________________________________________________________________________
g1_b1_L2conv (Conv3D)           (None, 5, 5, 89, 4)  508         g1_b1_L2[0][0]                   
__________________________________________________________________________________________________
g1_b1_L3conv (Conv3D)           (None, 5, 5, 89, 4)  508         g1_b1_L3[0][0]                   
__________________________________________________________________________________________________
g1_b1_L4conv (Conv3D)           (None, 5, 5, 89, 4)  508         g1_b1_L4[0][0]                   
__________________________________________________________________________________________________
g1_b1_L5conv (Conv3D)           (None, 5, 5, 89, 4)  508         g1_b1_L5[0][0]                   
__________________________________________________________________________________________________
g1_b1_L6conv (Conv3D)           (None, 5, 5, 89, 4)  508         g1_b1_L6[0][0]                   
__________________________________________________________________________________________________
lambda_1 (Lambda)               (None, 5, 5, 89, 4,  0           g1_b1_L1conv[0][0]               
__________________________________________________________________________________________________
lambda_2 (Lambda)               (None, 5, 5, 89, 4,  0           g1_b1_L2conv[0][0]               
…
                                                                 lambda_4[0][0]                   
                                                                 lambda_5[0][0]                   
                                                                 lambda_6[0][0]                   
__________________________________________________________________________________________________
g1_b1_permute1 (Permute)        (None, 5, 5, 89, 6,  0           g1_b1_concat1[0][0]              
__________________________________________________________________________________________________
g1_b1_M1 (Lambda)               (None, 5, 5, 89, 6)  0           g1_b1_permute1[0][0]             
__________________________________________________________________________________________________
g1_b1_M2 (Lambda)               (None, 5, 5, 89, 6)  0           g1_b1_permute1[0][0]             
__________________________________________________________________________________________________
g1_b1_M3 (Lambda)               (None, 5, 5, 89, 6)  0           g1_b1_permute1[0][0]             
__________________________________________________________________________________________________
g1_b1_M4 (Lambda)               (None, 5, 5, 89, 6)  0           g1_b1_permute1[0][0]             
__________________________________________________________________________________________________
g1_b1_M1conv (Conv3D)           (None, 5, 5, 89, 6)  42          g1_b1_M1[0][0]                   
__________________________________________________________________________________________________
g1_b1_M2conv (Conv3D)           (None, 5, 5, 89, 6)  42          g1_b1_M2[0][0]                   
__________________________________________________________________________________________________
g1_b1_M3conv (Conv3D)           (None, 5, 5, 89, 6)  42          g1_b1_M3[0][0]                   
__________________________________________________________________________________________________
g1_b1_M4conv (Conv3D)           (None, 5, 5, 89, 6)  42          g1_b1_M4[0][0]                   
__________________________________________________________________________________________________
lambda_7 (Lambda)               (None, 5, 5, 89, 6,  0           g1_b1_M1conv[0][0]               
__________________________________________________________________________________________________
lambda_8 (Lambda)               (None, 5, 5, 89, 6,  0           g1_b1_M2conv[0][0]               
…
__________________________________________________________________________________________________
g1_b1_concat2 (Concatenate)     (None, 5, 5, 89, 6,  0           lambda_7[0][0]                   
                                                                 lambda_8[0][0]                   
                                                                 lambda_9[0][0]                   
                                                                 lambda_10[0][0]                  
__________________________________________________________________________________________________
g1_b1_permute2 (Reshape)        (None, 5, 5, 89, 24) 0           g1_b1_concat2[0][0]              
__________________________________________________________________________________________________
g1_b1_bn (BatchNormalization)   (None, 5, 5, 89, 24) 96          g1_b1_permute2[0][0]             
__________________________________________________________________________________________________
g1_b1_relu (Activation)         (None, 5, 5, 89, 24) 0           g1_b1_bn[0][0]                   
__________________________________________________________________________________________________
max_pooling3d_2 (MaxPooling3D)  (None, 5, 5, 44, 24) 0           g1_b1_relu[0][0]                 
__________________________________________________________________________________________________
dropout_2 (Dropout)             (None, 5, 5, 44, 24) 0           max_pooling3d_2[0][0]            
__________________________________________________________________________________________________
g2_b1_L1 (Lambda)               (None, 5, 5, 44, 4)  0           dropout_2[0][0]                  
__________________________________________________________________________________________________
g2_b1_L2 (Lambda)               (None, 5, 5, 44, 4)  0           dropout_2[0][0]                  
__________________________________________________________________________________________________
g2_b1_L3 (Lambda)               (None, 5, 5, 44, 4)  0           dropout_2[0][0]                  
__________________________________________________________________________________________________
g2_b1_L4 (Lambda)               (None, 5, 5, 44, 4)  0           dropout_2[0][0]                  
__________________________________________________________________________________________________
g2_b1_L5 (Lambda)               (None, 5, 5, 44, 4)  0           dropout_2[0][0]                  
__________________________________________________________________________________________________
g2_b1_L6 (Lambda)               (None, 5, 5, 44, 4)  0           dropout_2[0][0]                  
__________________________________________________________________________________________________
g2_b1_L1conv (Conv3D)           (None, 3, 3, 40, 8)  1448        g2_b1_L1[0][0]                   
__________________________________________________________________________________________________
g2_b1_L2conv (Conv3D)           (None, 3, 3, 40, 8)  1448        g2_b1_L2[0][0]                   
__________________________________________________________________________________________________
g2_b1_L3conv (Conv3D)           (None, 3, 3, 40, 8)  1448        g2_b1_L3[0][0]                   
__________________________________________________________________________________________________
g2_b1_L4conv (Conv3D)           (None, 3, 3, 40, 8)  1448        g2_b1_L4[0][0]                   
__________________________________________________________________________________________________
g2_b1_L5conv (Conv3D)           (None, 3, 3, 40, 8)  1448        g2_b1_L5[0][0]                   
__________________________________________________________________________________________________
g2_b1_L6conv (Conv3D)           (None, 3, 3, 40, 8)  1448        g2_b1_L6[0][0]                   
__________________________________________________________________________________________________
lambda_11 (Lambda)              (None, 3, 3, 40, 8,  0           g2_b1_L1conv[0][0]               
__________________________________________________________________________________________________
lambda_12 (Lambda)              (None, 3, 3, 40, 8,  0           g2_b1_L2conv[0][0]               
…
                                                                 lambda_14[0][0]                  
                                                                 lambda_15[0][0]                  
                                                                 lambda_16[0][0]                  
__________________________________________________________________________________________________
g2_b1_permute1 (Permute)        (None, 3, 3, 40, 6,  0           g2_b1_concat1[0][0]              
__________________________________________________________________________________________________
g2_b1_M1 (Lambda)               (None, 3, 3, 40, 6)  0           g2_b1_permute1[0][0]             
__________________________________________________________________________________________________
g2_b1_M2 (Lambda)               (None, 3, 3, 40, 6)  0           g2_b1_permute1[0][0]             
__________________________________________________________________________________________________
g2_b1_M3 (Lambda)               (None, 3, 3, 40, 6)  0           g2_b1_permute1[0][0]             
__________________________________________________________________________________________________
g2_b1_M4 (Lambda)               (None, 3, 3, 40, 6)  0           g2_b1_permute1[0][0]             
__________________________________________________________________________________________________
g2_b1_M5 (Lambda)               (None, 3, 3, 40, 6)  0           g2_b1_permute1[0][0]             
__________________________________________________________________________________________________
g2_b1_M6 (Lambda)               (None, 3, 3, 40, 6)  0           g2_b1_permute1[0][0]             
__________________________________________________________________________________________________
g2_b1_M7 (Lambda)               (None, 3, 3, 40, 6)  0           g2_b1_permute1[0][0]             
__________________________________________________________________________________________________
g2_b1_M8 (Lambda)               (None, 3, 3, 40, 6)  0           g2_b1_permute1[0][0]             
__________________________________________________________________________________________________
g2_b1_M1conv (Conv3D)           (None, 3, 3, 40, 6)  42          g2_b1_M1[0][0]                   
__________________________________________________________________________________________________
g2_b1_M2conv (Conv3D)           (None, 3, 3, 40, 6)  42          g2_b1_M2[0][0]                   
__________________________________________________________________________________________________
g2_b1_M3conv (Conv3D)           (None, 3, 3, 40, 6)  42          g2_b1_M3[0][0]                   
__________________________________________________________________________________________________
g2_b1_M4conv (Conv3D)           (None, 3, 3, 40, 6)  42          g2_b1_M4[0][0]                   
__________________________________________________________________________________________________
g2_b1_M5conv (Conv3D)           (None, 3, 3, 40, 6)  42          g2_b1_M5[0][0]                   
__________________________________________________________________________________________________
g2_b1_M6conv (Conv3D)           (None, 3, 3, 40, 6)  42          g2_b1_M6[0][0]                   
__________________________________________________________________________________________________
g2_b1_M7conv (Conv3D)           (None, 3, 3, 40, 6)  42          g2_b1_M7[0][0]                   
__________________________________________________________________________________________________
g2_b1_M8conv (Conv3D)           (None, 3, 3, 40, 6)  42          g2_b1_M8[0][0]                   
__________________________________________________________________________________________________
lambda_17 (Lambda)              (None, 3, 3, 40, 6,  0           g2_b1_M1conv[0][0]               
__________________________________________________________________________________________________
lambda_18 (Lambda)              (None, 3, 3, 40, 6,  0           g2_b1_M2conv[0][0]               
…
                                                                 lambda_20[0][0]                  
                                                                 lambda_21[0][0]                  
                                                                 lambda_22[0][0]                  
                                                                 lambda_23[0][0]                  
                                                                 lambda_24[0][0]                  
__________________________________________________________________________________________________
g2_b1_permute2 (Reshape)        (None, 3, 3, 40, 48) 0           g2_b1_concat2[0][0]              
__________________________________________________________________________________________________
g2_b1_bn (BatchNormalization)   (None, 3, 3, 40, 48) 192         g2_b1_permute2[0][0]             
__________________________________________________________________________________________________
g2_b1_relu (Activation)         (None, 3, 3, 40, 48) 0           g2_b1_bn[0][0]                   
__________________________________________________________________________________________________
max_pooling3d_3 (MaxPooling3D)  (None, 3, 3, 20, 48) 0           g2_b1_relu[0][0]                 
__________________________________________________________________________________________________
dropout_3 (Dropout)             (None, 3, 3, 20, 48) 0           max_pooling3d_3[0][0]            
__________________________________________________________________________________________________
g3_b1_L1 (Lambda)               (None, 3, 3, 20, 8)  0           dropout_3[0][0]                  
__________________________________________________________________________________________________
g3_b1_L2 (Lambda)               (None, 3, 3, 20, 8)  0           dropout_3[0][0]                  
__________________________________________________________________________________________________
g3_b1_L3 (Lambda)               (None, 3, 3, 20, 8)  0           dropout_3[0][0]                  
__________________________________________________________________________________________________
g3_b1_L4 (Lambda)               (None, 3, 3, 20, 8)  0           dropout_3[0][0]                  
__________________________________________________________________________________________________
g3_b1_L5 (Lambda)               (None, 3, 3, 20, 8)  0           dropout_3[0][0]                  
__________________________________________________________________________________________________
g3_b1_L6 (Lambda)               (None, 3, 3, 20, 8)  0           dropout_3[0][0]                  
__________________________________________________________________________________________________
g3_b1_L1conv (Conv3D)           (None, 2, 2, 16, 16) 2576        g3_b1_L1[0][0]                   
__________________________________________________________________________________________________
g3_b1_L2conv (Conv3D)           (None, 2, 2, 16, 16) 2576        g3_b1_L2[0][0]                   
__________________________________________________________________________________________________
g3_b1_L3conv (Conv3D)           (None, 2, 2, 16, 16) 2576        g3_b1_L3[0][0]                   
__________________________________________________________________________________________________
g3_b1_L4conv (Conv3D)           (None, 2, 2, 16, 16) 2576        g3_b1_L4[0][0]                   
__________________________________________________________________________________________________
g3_b1_L5conv (Conv3D)           (None, 2, 2, 16, 16) 2576        g3_b1_L5[0][0]                   
__________________________________________________________________________________________________
g3_b1_L6conv (Conv3D)           (None, 2, 2, 16, 16) 2576        g3_b1_L6[0][0]                   
__________________________________________________________________________________________________
lambda_25 (Lambda)              (None, 2, 2, 16, 16, 0           g3_b1_L1conv[0][0]               
__________________________________________________________________________________________________
lambda_26 (Lambda)              (None, 2, 2, 16, 16, 0           g3_b1_L2conv[0][0]               
…
                                                                 lambda_28[0][0]                  
                                                                 lambda_29[0][0]                  
                                                                 lambda_30[0][0]                  
__________________________________________________________________________________________________
g3_b1_permute1 (Permute)        (None, 2, 2, 16, 6,  0           g3_b1_concat1[0][0]              
__________________________________________________________________________________________________
g3_b1_M1 (Lambda)               (None, 2, 2, 16, 6)  0           g3_b1_permute1[0][0]             
__________________________________________________________________________________________________
g3_b1_M2 (Lambda)               (None, 2, 2, 16, 6)  0           g3_b1_permute1[0][0]             
__________________________________________________________________________________________________
g3_b1_M3 (Lambda)               (None, 2, 2, 16, 6)  0           g3_b1_permute1[0][0]             
__________________________________________________________________________________________________
g3_b1_M4 (Lambda)               (None, 2, 2, 16, 6)  0           g3_b1_permute1[0][0]             
__________________________________________________________________________________________________
g3_b1_M5 (Lambda)               (None, 2, 2, 16, 6)  0           g3_b1_permute1[0][0]             
__________________________________________________________________________________________________
g3_b1_M6 (Lambda)               (None, 2, 2, 16, 6)  0           g3_b1_permute1[0][0]             
__________________________________________________________________________________________________
g3_b1_M7 (Lambda)               (None, 2, 2, 16, 6)  0           g3_b1_permute1[0][0]             
__________________________________________________________________________________________________
g3_b1_M8 (Lambda)               (None, 2, 2, 16, 6)  0           g3_b1_permute1[0][0]             
__________________________________________________________________________________________________
g3_b1_M9 (Lambda)               (None, 2, 2, 16, 6)  0           g3_b1_permute1[0][0]             
__________________________________________________________________________________________________
g3_b1_M10 (Lambda)              (None, 2, 2, 16, 6)  0           g3_b1_permute1[0][0]             
__________________________________________________________________________________________________
g3_b1_M11 (Lambda)              (None, 2, 2, 16, 6)  0           g3_b1_permute1[0][0]             
__________________________________________________________________________________________________
g3_b1_M12 (Lambda)              (None, 2, 2, 16, 6)  0           g3_b1_permute1[0][0]             
__________________________________________________________________________________________________
g3_b1_M13 (Lambda)              (None, 2, 2, 16, 6)  0           g3_b1_permute1[0][0]             
__________________________________________________________________________________________________
g3_b1_M14 (Lambda)              (None, 2, 2, 16, 6)  0           g3_b1_permute1[0][0]             
__________________________________________________________________________________________________
g3_b1_M15 (Lambda)              (None, 2, 2, 16, 6)  0           g3_b1_permute1[0][0]             
__________________________________________________________________________________________________
g3_b1_M16 (Lambda)              (None, 2, 2, 16, 6)  0           g3_b1_permute1[0][0]             
__________________________________________________________________________________________________
g3_b1_M1conv (Conv3D)           (None, 2, 2, 16, 6)  42          g3_b1_M1[0][0]                   
__________________________________________________________________________________________________
g3_b1_M2conv (Conv3D)           (None, 2, 2, 16, 6)  42          g3_b1_M2[0][0]                   
__________________________________________________________________________________________________
g3_b1_M3conv (Conv3D)           (None, 2, 2, 16, 6)  42          g3_b1_M3[0][0]                   
__________________________________________________________________________________________________
g3_b1_M4conv (Conv3D)           (None, 2, 2, 16, 6)  42          g3_b1_M4[0][0]                   
__________________________________________________________________________________________________
g3_b1_M5conv (Conv3D)           (None, 2, 2, 16, 6)  42          g3_b1_M5[0][0]                   
__________________________________________________________________________________________________
g3_b1_M6conv (Conv3D)           (None, 2, 2, 16, 6)  42          g3_b1_M6[0][0]                   
__________________________________________________________________________________________________
g3_b1_M7conv (Conv3D)           (None, 2, 2, 16, 6)  42          g3_b1_M7[0][0]                   
__________________________________________________________________________________________________
g3_b1_M8conv (Conv3D)           (None, 2, 2, 16, 6)  42          g3_b1_M8[0][0]                   
__________________________________________________________________________________________________
g3_b1_M9conv (Conv3D)           (None, 2, 2, 16, 6)  42          g3_b1_M9[0][0]                   
__________________________________________________________________________________________________
g3_b1_M10conv (Conv3D)          (None, 2, 2, 16, 6)  42          g3_b1_M10[0][0]                  
__________________________________________________________________________________________________
g3_b1_M11conv (Conv3D)          (None, 2, 2, 16, 6)  42          g3_b1_M11[0][0]                  
__________________________________________________________________________________________________
g3_b1_M12conv (Conv3D)          (None, 2, 2, 16, 6)  42          g3_b1_M12[0][0]                  
__________________________________________________________________________________________________
g3_b1_M13conv (Conv3D)          (None, 2, 2, 16, 6)  42          g3_b1_M13[0][0]                  
__________________________________________________________________________________________________
g3_b1_M14conv (Conv3D)          (None, 2, 2, 16, 6)  42          g3_b1_M14[0][0]                  
__________________________________________________________________________________________________
g3_b1_M15conv (Conv3D)          (None, 2, 2, 16, 6)  42          g3_b1_M15[0][0]                  
__________________________________________________________________________________________________
g3_b1_M16conv (Conv3D)          (None, 2, 2, 16, 6)  42          g3_b1_M16[0][0]                  
__________________________________________________________________________________________________
lambda_31 (Lambda)              (None, 2, 2, 16, 6,  0           g3_b1_M1conv[0][0]               
__________________________________________________________________________________________________
lambda_32 (Lambda)              (None, 2, 2, 16, 6,  0           g3_b1_M2conv[0][0]               
…
                                                                 lambda_42[0][0]                  
                                                                 lambda_43[0][0]                  
                                                                 lambda_44[0][0]                  
                                                                 lambda_45[0][0]                  
                                                                 lambda_46[0][0]                  
__________________________________________________________________________________________________
g3_b1_permute2 (Reshape)        (None, 2, 2, 16, 96) 0           g3_b1_concat2[0][0]              
__________________________________________________________________________________________________
g3_b1_bn (BatchNormalization)   (None, 2, 2, 16, 96) 384         g3_b1_permute2[0][0]             
__________________________________________________________________________________________________
g3_b1_relu (Activation)         (None, 2, 2, 16, 96) 0           g3_b1_bn[0][0]                   
__________________________________________________________________________________________________
avg_pool (AveragePooling3D)     (None, 1, 1, 8, 96)  0           g3_b1_relu[0][0]                 
__________________________________________________________________________________________________
flatten_1 (Flatten)             (None, 768)          0           avg_pool[0][0]                   
__________________________________________________________________________________________________
fc1 (Dense)                     (None, 16)           12304       flatten_1[0][0]                  
==================================================================================================
Total params: 41,536
Trainable params: 41,176
Non-trainable params: 360
__________________________________________________________________________________________________
Use Adam optimizer...
Train on 3067 samples, validate on 7182 samples
Epoch 1/20

  32/3067 [..............................] - ETA: 4:45 - loss: 3.0649 - acc: 0.0312
…
